…
in: ziffer_raw/NaN_2_dig0001_20211127-130623.jpg  -  out: ziffer_resize/NaN_2_dig0001_20211127-130623.jpg
in: ziffer_raw/1_dig001_20211109-115350.jpg  -  out: ziffer_resize/1_dig001_20211109-115350.jpg
in: ziffer_raw/0_dig0001_20211111-055800.jpg  -  out: ziffer_resize/0_dig0001_20211111-055800.jpg
in: ziffer_raw/8_dig0001_20211125-200840.jpg  -  out: ziffer_resize/8_dig0001_20211125-200840.jpg
dig-s0
a_output_actual/dig-s0
File Exists
Model: "sequential"
_________________________________________________________________
 Layer (type)                Output Shape              Param #   
=================================================================
 batch_normalization (BatchN  (None, 32, 20, 3)        12        
 ormalization)                                                   
                                                                 
 conv2d (Conv2D)             (None, 32, 20, 32)        896       
                                                                 
 max_pooling2d (MaxPooling2D  (None, 16, 10, 32)       0         
 )                                                               
                                                                 
 conv2d_1 (Conv2D)           (None, 16, 10, 64)        18496     
                                                                 
 max_pooling2d_1 (MaxPooling  (None, 8, 5, 64)         0         
 2D)                                                             
                                                                 
 conv2d_2 (Conv2D)           (None, 8, 5, 64)          36928     
                                                                 
 max_pooling2d_2 (MaxPooling  (None, 4, 2, 64)         0         
 2D)                                                             
                                                                 
 flatten (Flatten)           (None, 512)               0         
                                                                 
 dense (Dense)               (None, 512)               262656    
                                                                 
 dense_1 (Dense)             (None, 11)                5643      
                                                                 
=================================================================
Total params: 324,631
Trainable params: 324,625
Non-trainable params: 6
_________________________________________________________________
764
(764, 32, 20, 3)
(764, 11)
(611, 32, 20, 3)
(153, 32, 20, 3)
Epoch 1/50
  1/153 [..............................] - ETA
…
3/153 [==============================] - 2s 10ms/step - loss: 0.0089 - accuracy: 0.9967 - val_loss: 0.3627 - val_accuracy: 0.9673
dig-s0
File Exists
ziffer_resize/NaN_2_dig0001_20220410-100506.jpg -1 7
ziffer_resize/NaN_2_dig0001_20220410-131006.jpg -1 7
ziffer_resize/NaN_3_dig0001_20211111-060800.jpg -1 3
dig-s1
a_output_actual/dig-s1
File Exists
Model: "sequential_1"
_________________________________________________________________
 Layer (type)                Output Shape              Param #   
=================================================================
 batch_normalization_1 (Batc  (None, 32, 20, 3)        12        
 hNormalization)                                                 
                                                                 
 conv2d_3 (Conv2D)           (None, 32, 20, 32)        896       
                                                                 
 max_pooling2d_3 (MaxPooling  (None, 16, 10, 32)       0         
 2D)                                                             
                                                                 
 conv2d_4 (Conv2D)           (None, 16, 10, 64)        18496     
                                                                 
 max_pooling2d_4 (MaxPooling  (None, 8, 5, 64)         0         
 2D)                                                             
                                                                 
 conv2d_5 (Conv2D)           (None, 8, 5, 64)          36928     
                                                                 
 max_pooling2d_5 (MaxPooling  (None, 4, 2, 64)         0         
 2D)                                                             
                                                                 
 flatten_1 (Flatten)         (None, 512)               0         
                                                                 
 dense_2 (Dense)             (None, 256)               131328    
                                                                 
 dense_3 (Dense)             (None, 11)                2827      
                                                                 
=================================================================
Total params: 190,487
Trainable params: 190,481
Non-trainable params: 6
_________________________________________________________________
764
(764, 32, 20, 3)
(764, 11)
(611, 32, 20, 3)
(153, 32, 20, 3)
Epoch 1/50
  1/153 [..............................] - ETA
…
20220424	764	48	0.012716563418507576	0.12802085280418396
20220424	764	49	8.345893729710951e-05	0.17389656603336334
20220424	764	50	0.014915241859853268	0.1535213589668274
dig-s1
File Exists
ziffer_resize/6_4_dig01_20220410-103006.jpg 6 4
ziffer_resize/NaN_5_dig0001_20211111-124825.jpg -1 5
ziffer_resize/NaN_6_dig0001_20220411-114504.jpg -1 8
dig-s2
a_output_actual/dig-s2
File Exists
Model: "sequential_2"
_________________________________________________________________
 Layer (type)                Output Shape              Param #   
=================================================================
 batch_normalization_2 (Batc  (None, 32, 20, 3)        12        
 hNormalization)                                                 
                                                                 
 conv2d_6 (Conv2D)           (None, 32, 20, 32)        896       
                                                                 
 max_pooling2d_6 (MaxPooling  (None, 16, 10, 32)       0         
 2D)                                                             
                                                                 
 conv2d_7 (Conv2D)           (None, 16, 10, 32)        9248      
                                                                 
 max_pooling2d_7 (MaxPooling  (None, 8, 5, 32)         0         
 2D)                                                             
                                                                 
 conv2d_8 (Conv2D)           (None, 8, 5, 32)          9248      
                                                                 
 max_pooling2d_8 (MaxPooling  (None, 4, 2, 32)         0         
 2D)                                                             
                                                                 
 flatten_2 (Flatten)         (None, 256)               0         
                                                                 
 dense_4 (Dense)             (None, 256)               65792     
                                                                 
 dense_5 (Dense)             (None, 11)                2827      
                                                                 
=================================================================
Total params: 88,023
Trainable params: 88,017
Non-trainable params: 6
_________________________________________________________________
764
(764, 32, 20, 3)
(764, 11)
(611, 32, 20, 3)
(153, 32, 20, 3)
Epoch 1/50
  1/153 [..............................] - ETA: 
…
ziffer_resize/6_0_dig0001_20220411-044005.jpg 6 5
ziffer_resize/6_dig0001_20220411-024005.jpg 6 8
ziffer_resize/6_dig0001_20220411-043505.jpg 6 -1
ziffer_resize/NaN_1_dig0001_20220408-000958.jpg -1 8
ziffer_resize/NaN_4_dig001_20211112-111113.jpg -1 5
ziffer_resize/NaN_4_dig001_20211112-111613.jpg -1 5
ziffer_resize/NaN_5_dig0001_20211111-124825.jpg -1 5
dig-s3
a_output_actual/dig-s3
File Exists
Model: "sequential_3"
_________________________________________________________________
 Layer (type)                Output Shape              Param #   
=================================================================
 batch_normalization_3 (Batc  (None, 32, 20, 3)        12        
 hNormalization)                                                 
                                                                 
 conv2d_9 (Conv2D)           (None, 32, 20, 32)        896       
                                                                 
 max_pooling2d_9 (MaxPooling  (None, 16, 10, 32)       0         
 2D)                                                             
                                                                 
 conv2d_10 (Conv2D)          (None, 16, 10, 32)        9248      
                                                                 
 max_pooling2d_10 (MaxPoolin  (None, 8, 5, 32)         0         
 g2D)                                                            
                                                                 
 conv2d_11 (Conv2D)          (None, 8, 5, 32)          9248      
                                                                 
 max_pooling2d_11 (MaxPoolin  (None, 4, 2, 32)         0         
 g2D)                                                            
                                                                 
 flatten_3 (Flatten)         (None, 256)               0         
                                                                 
 dense_6 (Dense)             (None, 128)               32896     
                                                                 
 dense_7 (Dense)             (None, 11)                1419      
                                                                 
=================================================================
Total params: 53,719
Trainable params: 53,713
Non-trainable params: 6
_________________________________________________________________
764
(764, 32, 20, 3)
(764, 11)
(611, 32, 20, 3)
(153, 32, 20, 3)
Epoch 1/50
  1/153 [..............................] - ETA: 
…
