…
in: ziffer_raw/3_8_dig1_20220519-110748.jpg  -  out: ziffer_resize/3_8_dig1_20220519-110748.jpg
in: ziffer_raw/6_dig1_20211122-091824.jpg  -  out: ziffer_resize/6_dig1_20211122-091824.jpg
in: ziffer_raw/1_dig0001_20211124-071103.jpg  -  out: ziffer_resize/1_dig0001_20211124-071103.jpg
in: ziffer_raw/6_4_dig01_20220410-103006.jpg  -  out: ziffer_resize/6_4_dig01_20220410-103006.jpg
dig-s0
a_output_actual/dig-s0
File Exists
Model: "sequential"
_________________________________________________________________
 Layer (type)                Output Shape              Param #   
=================================================================
 batch_normalization (BatchN  (None, 32, 20, 3)        12        
 ormalization)                                                   
                                                                 
 conv2d (Conv2D)             (None, 32, 20, 32)        896       
                                                                 
 max_pooling2d (MaxPooling2D  (None, 16, 10, 32)       0         
 )                                                               
                                                                 
 conv2d_1 (Conv2D)           (None, 16, 10, 64)        18496     
                                                                 
 max_pooling2d_1 (MaxPooling  (None, 8, 5, 64)         0         
 2D)                                                             
                                                                 
 conv2d_2 (Conv2D)           (None, 8, 5, 64)          36928     
                                                                 
 max_pooling2d_2 (MaxPooling  (None, 4, 2, 64)         0         
 2D)                                                             
                                                                 
 flatten (Flatten)           (None, 512)               0         
                                                                 
 dense (Dense)               (None, 512)               262656    
                                                                 
 dense_1 (Dense)             (None, 11)                5643      
                                                                 
=================================================================
Total params: 324,631
Trainable params: 324,625
Non-trainable params: 6
_________________________________________________________________
784
(784, 32, 20, 3)
(784, 11)
(627, 32, 20, 3)
(157, 32, 20, 3)
Epoch 1/50
  1/157 [..............................] - ETA
…
racy: 1.0000157/157 [==============================] - 1s 9ms/step - loss: 2.9004e-05 - accuracy: 1.0000 - val_loss: 0.0022 - val_accuracy: 1.0000
dig-s0
File Exists
ziffer_resize/NaN_3_dig0001_20211111-060800.jpg -1 3
dig-s1
a_output_actual/dig-s1
File Exists
Model: "sequential_1"
_________________________________________________________________
 Layer (type)                Output Shape              Param #   
=================================================================
 batch_normalization_1 (Batc  (None, 32, 20, 3)        12        
 hNormalization)                                                 
                                                                 
 conv2d_3 (Conv2D)           (None, 32, 20, 32)        896       
                                                                 
 max_pooling2d_3 (MaxPooling  (None, 16, 10, 32)       0         
 2D)                                                             
                                                                 
 conv2d_4 (Conv2D)           (None, 16, 10, 64)        18496     
                                                                 
 max_pooling2d_4 (MaxPooling  (None, 8, 5, 64)         0         
 2D)                                                             
                                                                 
 conv2d_5 (Conv2D)           (None, 8, 5, 64)          36928     
                                                                 
 max_pooling2d_5 (MaxPooling  (None, 4, 2, 64)         0         
 2D)                                                             
                                                                 
 flatten_1 (Flatten)         (None, 512)               0         
                                                                 
 dense_2 (Dense)             (None, 256)               131328    
                                                                 
 dense_3 (Dense)             (None, 11)                2827      
                                                                 
=================================================================
Total params: 190,487
Trainable params: 190,481
Non-trainable params: 6
_________________________________________________________________
784
(784, 32, 20, 3)
(784, 11)
(627, 32, 20, 3)
(157, 32, 20, 3)
Epoch 1/50
  1/157 [..............................] - ETA
…
20220603	784	46	0.02703211084008217	0.07686657458543777
20220603	784	47	0.00048567462363280356	0.02311307191848755
20220603	784	48	0.037707969546318054	0.00025208049919456244
20220603	784	49	0.00033431369229219854	0.0054443711414933205
20220603	784	50	0.00390879949554801	5.684643383574439e-06
dig-s1
File Exists
dig-s2
a_output_actual/dig-s2
File Exists
Model: "sequential_2"
_________________________________________________________________
 Layer (type)                Output Shape              Param #   
=================================================================
 batch_normalization_2 (Batc  (None, 32, 20, 3)        12        
 hNormalization)                                                 
                                                                 
 conv2d_6 (Conv2D)           (None, 32, 20, 32)        896       
                                                                 
 max_pooling2d_6 (MaxPooling  (None, 16, 10, 32)       0         
 2D)                                                             
                                                                 
 conv2d_7 (Conv2D)           (None, 16, 10, 32)        9248      
                                                                 
 max_pooling2d_7 (MaxPooling  (None, 8, 5, 32)         0         
 2D)                                                             
                                                                 
 conv2d_8 (Conv2D)           (None, 8, 5, 32)          9248      
                                                                 
 max_pooling2d_8 (MaxPooling  (None, 4, 2, 32)         0         
 2D)                                                             
                                                                 
 flatten_2 (Flatten)         (None, 256)               0         
                                                                 
 dense_4 (Dense)             (None, 256)               65792     
                                                                 
 dense_5 (Dense)             (None, 11)                2827      
                                                                 
=================================================================
Total params: 88,023
Trainable params: 88,017
Non-trainable params: 6
_________________________________________________________________
784
(784, 32, 20, 3)
(784, 11)
(627, 32, 20, 3)
(157, 32, 20, 3)
Epoch 1/50
  1/157 [..............................] - ETA: 
…
20220603	784	46	0.005716141313314438	0.03205219656229019
20220603	784	47	0.003898591734468937	0.06179697811603546
20220603	784	48	0.003922599367797375	0.010883758775889874
20220603	784	49	0.01358417235314846	0.020393269136548042
20220603	784	50	2.036711339314934e-05	0.0697145089507103
dig-s2
File Exists
ziffer_resize/NaN_6_dig0001_20211111-071300.jpg -1 7
dig-s3
a_output_actual/dig-s3
File Exists
Model: "sequential_3"
_________________________________________________________________
 Layer (type)                Output Shape              Param #   
=================================================================
 batch_normalization_3 (Batc  (None, 32, 20, 3)        12        
 hNormalization)                                                 
                                                                 
 conv2d_9 (Conv2D)           (None, 32, 20, 32)        896       
                                                                 
 max_pooling2d_9 (MaxPooling  (None, 16, 10, 32)       0         
 2D)                                                             
                                                                 
 conv2d_10 (Conv2D)          (None, 16, 10, 32)        9248      
                                                                 
 max_pooling2d_10 (MaxPoolin  (None, 8, 5, 32)         0         
 g2D)                                                            
                                                                 
 conv2d_11 (Conv2D)          (None, 8, 5, 32)          9248      
                                                                 
 max_pooling2d_11 (MaxPoolin  (None, 4, 2, 32)         0         
 g2D)                                                            
                                                                 
 flatten_3 (Flatten)         (None, 256)               0         
                                                                 
 dense_6 (Dense)             (None, 128)               32896     
                                                                 
 dense_7 (Dense)             (None, 11)                1419      
                                                                 
=================================================================
Total params: 53,719
Trainable params: 53,713
Non-trainable params: 6
_________________________________________________________________
784
(784, 32, 20, 3)
(784, 11)
(627, 32, 20, 3)
(157, 32, 20, 3)
Epoch 1/50
  1/157 [..............................] - ETA: 
…
