…
in: ziffer_raw/0_dig0001_20211123-112606.jpg  -  out: ziffer_resize/0_dig0001_20211123-112606.jpg
in: ziffer_raw/0_dig100_20211122-131455.jpg  -  out: ziffer_resize/0_dig100_20211122-131455.jpg
in: ziffer_raw/8_dig001_20211124-105102.jpg  -  out: ziffer_resize/8_dig001_20211124-105102.jpg
in: ziffer_raw/1_dig100_20211126-055339.jpg  -  out: ziffer_resize/1_dig100_20211126-055339.jpg
dig-s0
a_output_actual/dig-s0
File Exists
Model: "sequential"
_________________________________________________________________
 Layer (type)                Output Shape              Param #   
=================================================================
 batch_normalization (BatchN  (None, 32, 20, 3)        12        
 ormalization)                                                   
                                                                 
 conv2d (Conv2D)             (None, 32, 20, 32)        896       
                                                                 
 max_pooling2d (MaxPooling2D  (None, 16, 10, 32)       0         
 )                                                               
                                                                 
 conv2d_1 (Conv2D)           (None, 16, 10, 64)        18496     
                                                                 
 max_pooling2d_1 (MaxPooling  (None, 8, 5, 64)         0         
 2D)                                                             
                                                                 
 conv2d_2 (Conv2D)           (None, 8, 5, 64)          36928     
                                                                 
 max_pooling2d_2 (MaxPooling  (None, 4, 2, 64)         0         
 2D)                                                             
                                                                 
 flatten (Flatten)           (None, 512)               0         
                                                                 
 dense (Dense)               (None, 512)               262656    
                                                                 
 dense_1 (Dense)             (None, 11)                5643      
                                                                 
=================================================================
Total params: 324,631
Trainable params: 324,625
Non-trainable params: 6
_________________________________________________________________
719
(719, 32, 20, 3)
(719, 11)
(575, 32, 20, 3)
(144, 32, 20, 3)
Epoch 1/50
  1/144 [..............................] - ETA
…
144/144 [==============================] - 1s 8ms/step - loss: 0.0141 - accuracy: 0.9965 - val_loss: 0.0388 - val_accuracy: 0.9931
dig-s0
File Exists
ziffer_resize/NaN_2_dig001_20211111-075800.jpg -1 3
ziffer_resize/NaN_3_dig0001_20211111-060800.jpg -1 3
ziffer_resize/NaN_3_dig0001_20211125-224921.jpg -1 3
dig-s1
a_output_actual/dig-s1
File Exists
Model: "sequential_1"
_________________________________________________________________
 Layer (type)                Output Shape              Param #   
=================================================================
 batch_normalization_1 (Batc  (None, 32, 20, 3)        12        
 hNormalization)                                                 
                                                                 
 conv2d_3 (Conv2D)           (None, 32, 20, 32)        896       
                                                                 
 max_pooling2d_3 (MaxPooling  (None, 16, 10, 32)       0         
 2D)                                                             
                                                                 
 conv2d_4 (Conv2D)           (None, 16, 10, 64)        18496     
                                                                 
 max_pooling2d_4 (MaxPooling  (None, 8, 5, 64)         0         
 2D)                                                             
                                                                 
 conv2d_5 (Conv2D)           (None, 8, 5, 64)          36928     
                                                                 
 max_pooling2d_5 (MaxPooling  (None, 4, 2, 64)         0         
 2D)                                                             
                                                                 
 flatten_1 (Flatten)         (None, 512)               0         
                                                                 
 dense_2 (Dense)             (None, 256)               131328    
                                                                 
 dense_3 (Dense)             (None, 11)                2827      
                                                                 
=================================================================
Total params: 190,487
Trainable params: 190,481
Non-trainable params: 6
_________________________________________________________________
719
(719, 32, 20, 3)
(719, 11)
(575, 32, 20, 3)
(144, 32, 20, 3)
Epoch 1/50
  1/144 [..............................] - ETA
…
20220214	719	46	0.011722950264811516	0.0010298489360138774
20220214	719	47	0.004838785622268915	0.0006188822444528341
20220214	719	48	6.98102085152641e-05	0.015151740983128548
20220214	719	49	9.218464401783422e-05	0.004182928241789341
20220214	719	50	0.011757885105907917	0.0005699790199287236
dig-s1
File Exists
ziffer_resize/NaN_5_dig0001_20211111-124825.jpg -1 5
dig-s2
a_output_actual/dig-s2
File Exists
Model: "sequential_2"
_________________________________________________________________
 Layer (type)                Output Shape              Param #   
=================================================================
 batch_normalization_2 (Batc  (None, 32, 20, 3)        12        
 hNormalization)                                                 
                                                                 
 conv2d_6 (Conv2D)           (None, 32, 20, 32)        896       
                                                                 
 max_pooling2d_6 (MaxPooling  (None, 16, 10, 32)       0         
 2D)                                                             
                                                                 
 conv2d_7 (Conv2D)           (None, 16, 10, 32)        9248      
                                                                 
 max_pooling2d_7 (MaxPooling  (None, 8, 5, 32)         0         
 2D)                                                             
                                                                 
 conv2d_8 (Conv2D)           (None, 8, 5, 32)          9248      
                                                                 
 max_pooling2d_8 (MaxPooling  (None, 4, 2, 32)         0         
 2D)                                                             
                                                                 
 flatten_2 (Flatten)         (None, 256)               0         
                                                                 
 dense_4 (Dense)             (None, 256)               65792     
                                                                 
 dense_5 (Dense)             (None, 11)                2827      
                                                                 
=================================================================
Total params: 88,023
Trainable params: 88,017
Non-trainable params: 6
_________________________________________________________________
719
(719, 32, 20, 3)
(719, 11)
(575, 32, 20, 3)
(144, 32, 20, 3)
Epoch 1/50
  1/144 [..............................] - ETA: 
…
20220214	719	46	0.0008912767516449094	0.04163331910967827
20220214	719	47	0.017299504950642586	0.016553407534956932
20220214	719	48	0.00023061326646711677	0.0504608079791069
20220214	719	49	0.00010566515265963972	0.06207415089011192
20220214	719	50	9.61957048275508e-05	0.01674746721982956
dig-s2
File Exists
ziffer_resize/7_dig0001_20211111-040759.jpg 7 -1
dig-s3
a_output_actual/dig-s3
File Exists
Model: "sequential_3"
_________________________________________________________________
 Layer (type)                Output Shape              Param #   
=================================================================
 batch_normalization_3 (Batc  (None, 32, 20, 3)        12        
 hNormalization)                                                 
                                                                 
 conv2d_9 (Conv2D)           (None, 32, 20, 32)        896       
                                                                 
 max_pooling2d_9 (MaxPooling  (None, 16, 10, 32)       0         
 2D)                                                             
                                                                 
 conv2d_10 (Conv2D)          (None, 16, 10, 32)        9248      
                                                                 
 max_pooling2d_10 (MaxPoolin  (None, 8, 5, 32)         0         
 g2D)                                                            
                                                                 
 conv2d_11 (Conv2D)          (None, 8, 5, 32)          9248      
                                                                 
 max_pooling2d_11 (MaxPoolin  (None, 4, 2, 32)         0         
 g2D)                                                            
                                                                 
 flatten_3 (Flatten)         (None, 256)               0         
                                                                 
 dense_6 (Dense)             (None, 128)               32896     
                                                                 
 dense_7 (Dense)             (None, 11)                1419      
                                                                 
=================================================================
Total params: 53,719
Trainable params: 53,713
Non-trainable params: 6
_________________________________________________________________
719
(719, 32, 20, 3)
(719, 11)
(575, 32, 20, 3)
(144, 32, 20, 3)
Epoch 1/50
  1/144 [..............................] - ETA: 
…
