…
in: ziffer_raw/3_dig0001_20211112-074114.jpg  -  out: ziffer_resize/3_dig0001_20211112-074114.jpg
in: ziffer_raw/7_dig0001_20211111-040759.jpg  -  out: ziffer_resize/7_dig0001_20211111-040759.jpg
in: ziffer_raw/7_dig0001_20211122-115109.jpg  -  out: ziffer_resize/7_dig0001_20211122-115109.jpg
dig-s0
a_output_actual/dig-s0
Workfile does not exists - init model necessary
Loading Model ...
Building model
Model: "sequential"
_________________________________________________________________
Layer (type)                 Output Shape              Param #   
=================================================================
batch_normalization (BatchNo (None, 32, 20, 3)         12        
_________________________________________________________________
conv2d (Conv2D)              (None, 32, 20, 32)        896       
_________________________________________________________________
max_pooling2d (MaxPooling2D) (None, 16, 10, 32)        0         
_________________________________________________________________
conv2d_1 (Conv2D)            (None, 16, 10, 64)        18496     
_________________________________________________________________
max_pooling2d_1 (MaxPooling2 (None, 8, 5, 64)          0         
_________________________________________________________________
conv2d_2 (Conv2D)            (None, 8, 5, 64)          36928     
_________________________________________________________________
max_pooling2d_2 (MaxPooling2 (None, 4, 2, 64)          0         
_________________________________________________________________
flatten (Flatten)            (None, 512)               0         
_________________________________________________________________
dense (Dense)                (None, 512)               262656    
_________________________________________________________________
dense_1 (Dense)              (None, 11)                5643      
=================================================================
Total params: 324,631
Trainable params: 324,625
Non-trainable params: 6
_________________________________________________________________
692
(692, 32, 20, 3)
(692, 11)
(553, 32, 20, 3)
(139, 32, 20, 3)
Epoch 1/50
  1/139 [..............................] - ETA: 1:20 - loss: 2.4367 - accuracy: 0.2500
…
ziffer_resize/4_dig0001_20211111-083326.jpg 4 -1
ziffer_resize/7_dig0001_20211111-040759.jpg 7 -1
ziffer_resize/NaN_3_dig0001_20211111-060800.jpg -1 3
ziffer_resize/NaN_3_dig0001_20211125-224921.jpg -1 3
ziffer_resize/NaN_7_dig0001_20211203-131442.jpg -1 9
dig-s1
a_output_actual/dig-s1
Workfile does not exists - init model necessary
Loading Model ...
Model: "sequential_1"
_________________________________________________________________
Layer (type)                 Output Shape              Param #   
=================================================================
batch_normalization_1 (Batch (None, 32, 20, 3)         12        
_________________________________________________________________
conv2d_3 (Conv2D)            (None, 32, 20, 32)        896       
_________________________________________________________________
max_pooling2d_3 (MaxPooling2 (None, 16, 10, 32)        0         
_________________________________________________________________
conv2d_4 (Conv2D)            (None, 16, 10, 64)        18496     
_________________________________________________________________
max_pooling2d_4 (MaxPooling2 (None, 8, 5, 64)          0         
_________________________________________________________________
conv2d_5 (Conv2D)            (None, 8, 5, 64)          36928     
_________________________________________________________________
max_pooling2d_5 (MaxPooling2 (None, 4, 2, 64)          0         
_________________________________________________________________
flatten_1 (Flatten)          (None, 512)               0         
_________________________________________________________________
dense_2 (Dense)              (None, 256)               131328    
_________________________________________________________________
dense_3 (Dense)              (None, 11)                2827      
=================================================================
Total params: 190,487
Trainable params: 190,481
Non-trainable params: 6
_________________________________________________________________
692
(692, 32, 20, 3)
(692, 11)
(553, 32, 20, 3)
(139, 32, 20, 3)
Epoch 1/50
  1/139 [..............................] - ETA: 1:06 - loss: 2.3678 - accuracy: 0.0000e+00
…
ziffer_resize/NaN_1_dig0001_20211111-160932.jpg -1 2
ziffer_resize/NaN_3_dig0001_20211111-060800.jpg -1 4
ziffer_resize/NaN_5_dig0001_20211110-220058.jpg -1 6
ziffer_resize/NaN_5_dig0001_20211111-124825.jpg -1 5
ziffer_resize/NaN_7_dig0001_20211203-131442.jpg -1 9
dig-s2
a_output_actual/dig-s2
Workfile does not exists - init model necessary
Loading Model ...
Model: "sequential_2"
_________________________________________________________________
Layer (type)                 Output Shape              Param #   
=================================================================
batch_normalization_2 (Batch (None, 32, 20, 3)         12        
_________________________________________________________________
conv2d_6 (Conv2D)            (None, 32, 20, 32)        896       
_________________________________________________________________
max_pooling2d_6 (MaxPooling2 (None, 16, 10, 32)        0         
_________________________________________________________________
conv2d_7 (Conv2D)            (None, 16, 10, 32)        9248      
_________________________________________________________________
max_pooling2d_7 (MaxPooling2 (None, 8, 5, 32)          0         
_________________________________________________________________
conv2d_8 (Conv2D)            (None, 8, 5, 32)          9248      
_________________________________________________________________
max_pooling2d_8 (MaxPooling2 (None, 4, 2, 32)          0         
_________________________________________________________________
flatten_2 (Flatten)          (None, 256)               0         
_________________________________________________________________
dense_4 (Dense)              (None, 256)               65792     
_________________________________________________________________
dense_5 (Dense)              (None, 11)                2827      
=================================================================
Total params: 88,023
Trainable params: 88,017
Non-trainable params: 6
_________________________________________________________________
692
(692, 32, 20, 3)
(692, 11)
(553, 32, 20, 3)
(139, 32, 20, 3)
Epoch 1/50
  1/139 [..............................] - ETA: 1:07 - loss: 2.4326 - accuracy: 0.2500
…
ziffer_resize/NaN_5_dig0001_20211110-220058.jpg -1 6
ziffer_resize/NaN_5_dig0001_20211111-064826.jpg -1 6
ziffer_resize/NaN_5_dig0001_20211111-124825.jpg -1 5
ziffer_resize/NaN_6_dig0001_20211111-071300.jpg -1 7
ziffer_resize/NaN_6_dig0001_20211123-183708.jpg -1 6
dig-s3
a_output_actual/dig-s3
Workfile does not exists - init model necessary
Loading Model ...
Model: "sequential_3"
_________________________________________________________________
Layer (type)                 Output Shape              Param #   
=================================================================
batch_normalization_3 (Batch (None, 32, 20, 3)         12        
_________________________________________________________________
conv2d_9 (Conv2D)            (None, 32, 20, 32)        896       
_________________________________________________________________
max_pooling2d_9 (MaxPooling2 (None, 16, 10, 32)        0         
_________________________________________________________________
conv2d_10 (Conv2D)           (None, 16, 10, 32)        9248      
_________________________________________________________________
max_pooling2d_10 (MaxPooling (None, 8, 5, 32)          0         
_________________________________________________________________
conv2d_11 (Conv2D)           (None, 8, 5, 32)          9248      
_________________________________________________________________
max_pooling2d_11 (MaxPooling (None, 4, 2, 32)          0         
_________________________________________________________________
flatten_3 (Flatten)          (None, 256)               0         
_________________________________________________________________
dense_6 (Dense)              (None, 128)               32896     
_________________________________________________________________
dense_7 (Dense)              (None, 11)                1419      
=================================================================
Total params: 53,719
Trainable params: 53,713
Non-trainable params: 6
_________________________________________________________________
692
(692, 32, 20, 3)
(692, 11)
(553, 32, 20, 3)
(139, 32, 20, 3)
Epoch 1/50
  1/139 [..............................] - ETA: 1:06 - loss: 2.2702 - accuracy: 0.0000e+00
…
