…
in: ziffer_raw/9_dig0001_20211111-030259.jpg  -  out: ziffer_resize/9_dig0001_20211111-030259.jpg
in: ziffer_raw/8_dig0001_20211122-085324.jpg  -  out: ziffer_resize/8_dig0001_20211122-085324.jpg
in: ziffer_raw/0_dig100_20211127-134623.jpg  -  out: ziffer_resize/0_dig100_20211127-134623.jpg
in: ziffer_raw/NaN_7_dig0001_20211111-074800.jpg  -  out: ziffer_resize/NaN_7_dig0001_20211111-074800.jpg
dig-s0
a_output_actual/dig-s0
File Exists
Model: "sequential"
_________________________________________________________________
 Layer (type)                Output Shape              Param #   
=================================================================
 batch_normalization (BatchN  (None, 32, 20, 3)        12        
 ormalization)                                                   
                                                                 
 conv2d (Conv2D)             (None, 32, 20, 32)        896       
                                                                 
 max_pooling2d (MaxPooling2D  (None, 16, 10, 32)       0         
 )                                                               
                                                                 
 conv2d_1 (Conv2D)           (None, 16, 10, 64)        18496     
                                                                 
 max_pooling2d_1 (MaxPooling  (None, 8, 5, 64)         0         
 2D)                                                             
                                                                 
 conv2d_2 (Conv2D)           (None, 8, 5, 64)          36928     
                                                                 
 max_pooling2d_2 (MaxPooling  (None, 4, 2, 64)         0         
 2D)                                                             
                                                                 
 flatten (Flatten)           (None, 512)               0         
                                                                 
 dense (Dense)               (None, 512)               262656    
                                                                 
 dense_1 (Dense)             (None, 11)                5643      
                                                                 
=================================================================
Total params: 324,631
Trainable params: 324,625
Non-trainable params: 6
_________________________________________________________________
774
(774, 32, 20, 3)
(774, 11)
(619, 32, 20, 3)
(155, 32, 20, 3)
Epoch 1/50
  1/155 [..............................] - ETA
…
155/155 [==============================] - 2s 11ms/step - loss: 0.0410 - accuracy: 0.9984 - val_loss: 0.0658 - val_accuracy: 0.9871
dig-s0
File Exists
ziffer_resize/3_dig001_20211124-211101.jpg 3 -1
ziffer_resize/NaN_1_dig0001_20211111-160932.jpg -1 2
dig-s1
a_output_actual/dig-s1
File Exists
Model: "sequential_1"
_________________________________________________________________
 Layer (type)                Output Shape              Param #   
=================================================================
 batch_normalization_1 (Batc  (None, 32, 20, 3)        12        
 hNormalization)                                                 
                                                                 
 conv2d_3 (Conv2D)           (None, 32, 20, 32)        896       
                                                                 
 max_pooling2d_3 (MaxPooling  (None, 16, 10, 32)       0         
 2D)                                                             
                                                                 
 conv2d_4 (Conv2D)           (None, 16, 10, 64)        18496     
                                                                 
 max_pooling2d_4 (MaxPooling  (None, 8, 5, 64)         0         
 2D)                                                             
                                                                 
 conv2d_5 (Conv2D)           (None, 8, 5, 64)          36928     
                                                                 
 max_pooling2d_5 (MaxPooling  (None, 4, 2, 64)         0         
 2D)                                                             
                                                                 
 flatten_1 (Flatten)         (None, 512)               0         
                                                                 
 dense_2 (Dense)             (None, 256)               131328    
                                                                 
 dense_3 (Dense)             (None, 11)                2827      
                                                                 
=================================================================
Total params: 190,487
Trainable params: 190,481
Non-trainable params: 6
_________________________________________________________________
774
(774, 32, 20, 3)
(774, 11)
(619, 32, 20, 3)
(155, 32, 20, 3)
Epoch 1/50
  1/155 [..............................] - ETA
…
ziffer_resize/NaN_1_dig0001_20211111-160932.jpg -1 2
ziffer_resize/NaN_5_dig0001_20211111-124825.jpg -1 5
ziffer_resize/NaN_6_dig0001_20211111-071300.jpg -1 7
ziffer_resize/NaN_6_dig0001_20211125-094059.jpg -1 7
ziffer_resize/NaN_6_dig0001_20220411-114504.jpg -1 8
ziffer_resize/NaN_9_dig0001_20211126-133419.jpg -1 9
dig-s2
a_output_actual/dig-s2
File Exists
Model: "sequential_2"
_________________________________________________________________
 Layer (type)                Output Shape              Param #   
=================================================================
 batch_normalization_2 (Batc  (None, 32, 20, 3)        12        
 hNormalization)                                                 
                                                                 
 conv2d_6 (Conv2D)           (None, 32, 20, 32)        896       
                                                                 
 max_pooling2d_6 (MaxPooling  (None, 16, 10, 32)       0         
 2D)                                                             
                                                                 
 conv2d_7 (Conv2D)           (None, 16, 10, 32)        9248      
                                                                 
 max_pooling2d_7 (MaxPooling  (None, 8, 5, 32)         0         
 2D)                                                             
                                                                 
 conv2d_8 (Conv2D)           (None, 8, 5, 32)          9248      
                                                                 
 max_pooling2d_8 (MaxPooling  (None, 4, 2, 32)         0         
 2D)                                                             
                                                                 
 flatten_2 (Flatten)         (None, 256)               0         
                                                                 
 dense_4 (Dense)             (None, 256)               65792     
                                                                 
 dense_5 (Dense)             (None, 11)                2827      
                                                                 
=================================================================
Total params: 88,023
Trainable params: 88,017
Non-trainable params: 6
_________________________________________________________________
774
(774, 32, 20, 3)
(774, 11)
(619, 32, 20, 3)
(155, 32, 20, 3)
Epoch 1/50
  1/155 [..............................] - ETA: 
…
20220428	774	47	0.026804743334650993	0.1402519792318344
20220428	774	48	0.005428391043096781	0.09980348497629166
20220428	774	49	0.0209636427462101	0.1085832417011261
20220428	774	50	0.024595217779278755	0.029839491471648216
dig-s2
File Exists
ziffer_resize/7_dig0001_20211111-040759.jpg 7 -1
ziffer_resize/NaN_5_dig0001_20211111-124825.jpg -1 5
dig-s3
a_output_actual/dig-s3
File Exists
Model: "sequential_3"
_________________________________________________________________
 Layer (type)                Output Shape              Param #   
=================================================================
 batch_normalization_3 (Batc  (None, 32, 20, 3)        12        
 hNormalization)                                                 
                                                                 
 conv2d_9 (Conv2D)           (None, 32, 20, 32)        896       
                                                                 
 max_pooling2d_9 (MaxPooling  (None, 16, 10, 32)       0         
 2D)                                                             
                                                                 
 conv2d_10 (Conv2D)          (None, 16, 10, 32)        9248      
                                                                 
 max_pooling2d_10 (MaxPoolin  (None, 8, 5, 32)         0         
 g2D)                                                            
                                                                 
 conv2d_11 (Conv2D)          (None, 8, 5, 32)          9248      
                                                                 
 max_pooling2d_11 (MaxPoolin  (None, 4, 2, 32)         0         
 g2D)                                                            
                                                                 
 flatten_3 (Flatten)         (None, 256)               0         
                                                                 
 dense_6 (Dense)             (None, 128)               32896     
                                                                 
 dense_7 (Dense)             (None, 11)                1419      
                                                                 
=================================================================
Total params: 53,719
Trainable params: 53,713
Non-trainable params: 6
_________________________________________________________________
774
(774, 32, 20, 3)
(774, 11)
(619, 32, 20, 3)
(155, 32, 20, 3)
Epoch 1/50
  1/155 [..............................] - ETA: 
…
