…
in: ziffer_raw/1_dig100_20211126-055339.jpg  -  out: ziffer_resize/1_dig100_20211126-055339.jpg
in: ziffer_raw/5_dig001_20211123-133606.jpg  -  out: ziffer_resize/5_dig001_20211123-133606.jpg
in: ziffer_raw/NaN_3_dig0001_20211111-060800.jpg  -  out: ziffer_resize/NaN_3_dig0001_20211111-060800.jpg
in: ziffer_raw/5_dig001_20211123-115106.jpg  -  out: ziffer_resize/5_dig001_20211123-115106.jpg
dig-s0
a_output_actual/dig-s0
File Exists
Model: "sequential"
_________________________________________________________________
 Layer (type)                Output Shape              Param #   
=================================================================
 batch_normalization (BatchN  (None, 32, 20, 3)        12        
 ormalization)                                                   
                                                                 
 conv2d (Conv2D)             (None, 32, 20, 32)        896       
                                                                 
 max_pooling2d (MaxPooling2D  (None, 16, 10, 32)       0         
 )                                                               
                                                                 
 conv2d_1 (Conv2D)           (None, 16, 10, 64)        18496     
                                                                 
 max_pooling2d_1 (MaxPooling  (None, 8, 5, 64)         0         
 2D)                                                             
                                                                 
 conv2d_2 (Conv2D)           (None, 8, 5, 64)          36928     
                                                                 
 max_pooling2d_2 (MaxPooling  (None, 4, 2, 64)         0         
 2D)                                                             
                                                                 
 flatten (Flatten)           (None, 512)               0         
                                                                 
 dense (Dense)               (None, 512)               262656    
                                                                 
 dense_1 (Dense)             (None, 11)                5643      
                                                                 
=================================================================
Total params: 324,631
Trainable params: 324,625
Non-trainable params: 6
_________________________________________________________________
716
(716, 32, 20, 3)
(716, 11)
(572, 32, 20, 3)
(144, 32, 20, 3)
Epoch 1/50
  1/143 [..............................] - ETA
…
143/143 [==============================] - 2s 11ms/step - loss: 0.0018 - accuracy: 0.9983 - val_loss: 0.0272 - val_accuracy: 0.9931
dig-s0
File Exists
ziffer_resize/3_dig001_20211124-211101.jpg 3 -1
ziffer_resize/NaN_3_dig0001_20211111-060800.jpg -1 3
dig-s1
a_output_actual/dig-s1
File Exists
Model: "sequential_1"
_________________________________________________________________
 Layer (type)                Output Shape              Param #   
=================================================================
 batch_normalization_1 (Batc  (None, 32, 20, 3)        12        
 hNormalization)                                                 
                                                                 
 conv2d_3 (Conv2D)           (None, 32, 20, 32)        896       
                                                                 
 max_pooling2d_3 (MaxPooling  (None, 16, 10, 32)       0         
 2D)                                                             
                                                                 
 conv2d_4 (Conv2D)           (None, 16, 10, 64)        18496     
                                                                 
 max_pooling2d_4 (MaxPooling  (None, 8, 5, 64)         0         
 2D)                                                             
                                                                 
 conv2d_5 (Conv2D)           (None, 8, 5, 64)          36928     
                                                                 
 max_pooling2d_5 (MaxPooling  (None, 4, 2, 64)         0         
 2D)                                                             
                                                                 
 flatten_1 (Flatten)         (None, 512)               0         
                                                                 
 dense_2 (Dense)             (None, 256)               131328    
                                                                 
 dense_3 (Dense)             (None, 11)                2827      
                                                                 
=================================================================
Total params: 190,487
Trainable params: 190,481
Non-trainable params: 6
_________________________________________________________________
716
(716, 32, 20, 3)
(716, 11)
(572, 32, 20, 3)
(144, 32, 20, 3)
Epoch 1/50
  1/143 [..............................] - ETA
…
20220213	716	47	0.0005789223359897733	0.0037429891526699066
20220213	716	48	0.005607928615063429	0.03864865005016327
20220213	716	49	0.0025953336153179407	0.010159352794289589
20220213	716	50	0.0190369114279747	0.059649329632520676
dig-s1
File Exists
ziffer_resize/NaN_3_dig0001_20211111-060800.jpg -1 3
ziffer_resize/NaN_5_dig0001_20211111-124825.jpg -1 5
dig-s2
a_output_actual/dig-s2
File Exists
Model: "sequential_2"
_________________________________________________________________
 Layer (type)                Output Shape              Param #   
=================================================================
 batch_normalization_2 (Batc  (None, 32, 20, 3)        12        
 hNormalization)                                                 
                                                                 
 conv2d_6 (Conv2D)           (None, 32, 20, 32)        896       
                                                                 
 max_pooling2d_6 (MaxPooling  (None, 16, 10, 32)       0         
 2D)                                                             
                                                                 
 conv2d_7 (Conv2D)           (None, 16, 10, 32)        9248      
                                                                 
 max_pooling2d_7 (MaxPooling  (None, 8, 5, 32)         0         
 2D)                                                             
                                                                 
 conv2d_8 (Conv2D)           (None, 8, 5, 32)          9248      
                                                                 
 max_pooling2d_8 (MaxPooling  (None, 4, 2, 32)         0         
 2D)                                                             
                                                                 
 flatten_2 (Flatten)         (None, 256)               0         
                                                                 
 dense_4 (Dense)             (None, 256)               65792     
                                                                 
 dense_5 (Dense)             (None, 11)                2827      
                                                                 
=================================================================
Total params: 88,023
Trainable params: 88,017
Non-trainable params: 6
_________________________________________________________________
716
(716, 32, 20, 3)
(716, 11)
(572, 32, 20, 3)
(144, 32, 20, 3)
Epoch 1/50
  1/143 [..............................] - ETA: 
…
20220213	716	46	0.023762719705700874	0.07939373701810837
20220213	716	47	0.011469248682260513	0.14955702424049377
20220213	716	48	0.0160236656665802	0.0028114398010075092
20220213	716	49	0.013425171375274658	0.0030276519246399403
20220213	716	50	0.003590384963899851	0.11968675255775452
dig-s2
File Exists
ziffer_resize/6_dig001_20220205-075727.jpg 6 -1
dig-s3
a_output_actual/dig-s3
File Exists
Model: "sequential_3"
_________________________________________________________________
 Layer (type)                Output Shape              Param #   
=================================================================
 batch_normalization_3 (Batc  (None, 32, 20, 3)        12        
 hNormalization)                                                 
                                                                 
 conv2d_9 (Conv2D)           (None, 32, 20, 32)        896       
                                                                 
 max_pooling2d_9 (MaxPooling  (None, 16, 10, 32)       0         
 2D)                                                             
                                                                 
 conv2d_10 (Conv2D)          (None, 16, 10, 32)        9248      
                                                                 
 max_pooling2d_10 (MaxPoolin  (None, 8, 5, 32)         0         
 g2D)                                                            
                                                                 
 conv2d_11 (Conv2D)          (None, 8, 5, 32)          9248      
                                                                 
 max_pooling2d_11 (MaxPoolin  (None, 4, 2, 32)         0         
 g2D)                                                            
                                                                 
 flatten_3 (Flatten)         (None, 256)               0         
                                                                 
 dense_6 (Dense)             (None, 128)               32896     
                                                                 
 dense_7 (Dense)             (None, 11)                1419      
                                                                 
=================================================================
Total params: 53,719
Trainable params: 53,713
Non-trainable params: 6
_________________________________________________________________
716
(716, 32, 20, 3)
(716, 11)
(572, 32, 20, 3)
(144, 32, 20, 3)
Epoch 1/50
  1/143 [..............................] - ETA: 
…
