…
in: ziffer_raw/0_dig01_20211122-104955.jpg  -  out: ziffer_resize/0_dig01_20211122-104955.jpg
in: ziffer_raw/3_dig0001_20211125-205340.jpg  -  out: ziffer_resize/3_dig0001_20211125-205340.jpg
in: ziffer_raw/0_dig0001_20211125-064600.jpg  -  out: ziffer_resize/0_dig0001_20211125-064600.jpg
in: ziffer_raw/4_dig01_20211125-125059.jpg  -  out: ziffer_resize/4_dig01_20211125-125059.jpg
dig-s0
a_output_actual/dig-s0
File Exists
Model: "sequential"
_________________________________________________________________
 Layer (type)                Output Shape              Param #   
=================================================================
 batch_normalization (BatchN  (None, 32, 20, 3)        12        
 ormalization)                                                   
                                                                 
 conv2d (Conv2D)             (None, 32, 20, 32)        896       
                                                                 
 max_pooling2d (MaxPooling2D  (None, 16, 10, 32)       0         
 )                                                               
                                                                 
 conv2d_1 (Conv2D)           (None, 16, 10, 64)        18496     
                                                                 
 max_pooling2d_1 (MaxPooling  (None, 8, 5, 64)         0         
 2D)                                                             
                                                                 
 conv2d_2 (Conv2D)           (None, 8, 5, 64)          36928     
                                                                 
 max_pooling2d_2 (MaxPooling  (None, 4, 2, 64)         0         
 2D)                                                             
                                                                 
 flatten (Flatten)           (None, 512)               0         
                                                                 
 dense (Dense)               (None, 512)               262656    
                                                                 
 dense_1 (Dense)             (None, 11)                5643      
                                                                 
=================================================================
Total params: 324,631
Trainable params: 324,625
Non-trainable params: 6
_________________________________________________________________
780
(780, 32, 20, 3)
(780, 11)
(624, 32, 20, 3)
(156, 32, 20, 3)
Epoch 1/50
  1/156 [..............................] - ETA
…
156/156 [==============================] - 1s 9ms/step - loss: 4.1003e-05 - accuracy: 1.0000 - val_loss: 0.0208 - val_accuracy: 0.9936
dig-s0
File Exists
ziffer_resize/3_dig001_20211124-211101.jpg 3 -1
ziffer_resize/NaN_3_dig0001_20211111-060800.jpg -1 3
dig-s1
a_output_actual/dig-s1
File Exists
Model: "sequential_1"
_________________________________________________________________
 Layer (type)                Output Shape              Param #   
=================================================================
 batch_normalization_1 (Batc  (None, 32, 20, 3)        12        
 hNormalization)                                                 
                                                                 
 conv2d_3 (Conv2D)           (None, 32, 20, 32)        896       
                                                                 
 max_pooling2d_3 (MaxPooling  (None, 16, 10, 32)       0         
 2D)                                                             
                                                                 
 conv2d_4 (Conv2D)           (None, 16, 10, 64)        18496     
                                                                 
 max_pooling2d_4 (MaxPooling  (None, 8, 5, 64)         0         
 2D)                                                             
                                                                 
 conv2d_5 (Conv2D)           (None, 8, 5, 64)          36928     
                                                                 
 max_pooling2d_5 (MaxPooling  (None, 4, 2, 64)         0         
 2D)                                                             
                                                                 
 flatten_1 (Flatten)         (None, 512)               0         
                                                                 
 dense_2 (Dense)             (None, 256)               131328    
                                                                 
 dense_3 (Dense)             (None, 11)                2827      
                                                                 
=================================================================
Total params: 190,487
Trainable params: 190,481
Non-trainable params: 6
_________________________________________________________________
780
(780, 32, 20, 3)
(780, 11)
(624, 32, 20, 3)
(156, 32, 20, 3)
Epoch 1/50
  1/156 [..............................] - ETA
…
20220520	780	48	0.0005978413973934948	0.0006245088879950345
20220520	780	49	0.000784539501182735	0.0009258114150725305
20220520	780	50	0.00016464256623294204	0.06519263982772827
dig-s1
File Exists
ziffer_resize/NaN_6_dig0001_20211111-071300.jpg -1 7
ziffer_resize/NaN_8_dig001_20220317-112445.jpg -1 6
ziffer_resize/NaN_8_dig01_20220218-020131.jpg -1 8
dig-s2
a_output_actual/dig-s2
File Exists
Model: "sequential_2"
_________________________________________________________________
 Layer (type)                Output Shape              Param #   
=================================================================
 batch_normalization_2 (Batc  (None, 32, 20, 3)        12        
 hNormalization)                                                 
                                                                 
 conv2d_6 (Conv2D)           (None, 32, 20, 32)        896       
                                                                 
 max_pooling2d_6 (MaxPooling  (None, 16, 10, 32)       0         
 2D)                                                             
                                                                 
 conv2d_7 (Conv2D)           (None, 16, 10, 32)        9248      
                                                                 
 max_pooling2d_7 (MaxPooling  (None, 8, 5, 32)         0         
 2D)                                                             
                                                                 
 conv2d_8 (Conv2D)           (None, 8, 5, 32)          9248      
                                                                 
 max_pooling2d_8 (MaxPooling  (None, 4, 2, 32)         0         
 2D)                                                             
                                                                 
 flatten_2 (Flatten)         (None, 256)               0         
                                                                 
 dense_4 (Dense)             (None, 256)               65792     
                                                                 
 dense_5 (Dense)             (None, 11)                2827      
                                                                 
=================================================================
Total params: 88,023
Trainable params: 88,017
Non-trainable params: 6
_________________________________________________________________
780
(780, 32, 20, 3)
(780, 11)
(624, 32, 20, 3)
(156, 32, 20, 3)
Epoch 1/50
  1/156 [..............................] - ETA: 
…
20220520	780	47	0.016141163185238838	0.2675444483757019
20220520	780	48	0.026470299810171127	0.0791374072432518
20220520	780	49	0.0023863448295742273	0.08958595246076584
20220520	780	50	0.010112878866493702	0.10802999138832092
dig-s2
File Exists
ziffer_resize/NaN_5_dig0001_20211111-124825.jpg -1 5
ziffer_resize/NaN_6_dig0001_20211111-071300.jpg -1 7
dig-s3
a_output_actual/dig-s3
File Exists
Model: "sequential_3"
_________________________________________________________________
 Layer (type)                Output Shape              Param #   
=================================================================
 batch_normalization_3 (Batc  (None, 32, 20, 3)        12        
 hNormalization)                                                 
                                                                 
 conv2d_9 (Conv2D)           (None, 32, 20, 32)        896       
                                                                 
 max_pooling2d_9 (MaxPooling  (None, 16, 10, 32)       0         
 2D)                                                             
                                                                 
 conv2d_10 (Conv2D)          (None, 16, 10, 32)        9248      
                                                                 
 max_pooling2d_10 (MaxPoolin  (None, 8, 5, 32)         0         
 g2D)                                                            
                                                                 
 conv2d_11 (Conv2D)          (None, 8, 5, 32)          9248      
                                                                 
 max_pooling2d_11 (MaxPoolin  (None, 4, 2, 32)         0         
 g2D)                                                            
                                                                 
 flatten_3 (Flatten)         (None, 256)               0         
                                                                 
 dense_6 (Dense)             (None, 128)               32896     
                                                                 
 dense_7 (Dense)             (None, 11)                1419      
                                                                 
=================================================================
Total params: 53,719
Trainable params: 53,713
Non-trainable params: 6
_________________________________________________________________
780
(780, 32, 20, 3)
(780, 11)
(624, 32, 20, 3)
(156, 32, 20, 3)
Epoch 1/50
  1/156 [..............................] - ETA: 
…
