…
in: ziffer_raw/6_dig1_20211122-091824.jpg  -  out: ziffer_resize/6_dig1_20211122-091824.jpg
in: ziffer_raw/1_dig0001_20211124-071103.jpg  -  out: ziffer_resize/1_dig0001_20211124-071103.jpg
in: ziffer_raw/6_4_dig01_20220410-103006.jpg  -  out: ziffer_resize/6_4_dig01_20220410-103006.jpg
in: ziffer_raw/0_dig100_20211124-023708.jpg  -  out: ziffer_resize/0_dig100_20211124-023708.jpg
dig-s0
a_output_actual/dig-s0
File Exists
Model: "sequential"
_________________________________________________________________
 Layer (type)                Output Shape              Param #   
=================================================================
 batch_normalization (BatchN  (None, 32, 20, 3)        12        
 ormalization)                                                   
                                                                 
 conv2d (Conv2D)             (None, 32, 20, 32)        896       
                                                                 
 max_pooling2d (MaxPooling2D  (None, 16, 10, 32)       0         
 )                                                               
                                                                 
 conv2d_1 (Conv2D)           (None, 16, 10, 64)        18496     
                                                                 
 max_pooling2d_1 (MaxPooling  (None, 8, 5, 64)         0         
 2D)                                                             
                                                                 
 conv2d_2 (Conv2D)           (None, 8, 5, 64)          36928     
                                                                 
 max_pooling2d_2 (MaxPooling  (None, 4, 2, 64)         0         
 2D)                                                             
                                                                 
 flatten (Flatten)           (None, 512)               0         
                                                                 
 dense (Dense)               (None, 512)               262656    
                                                                 
 dense_1 (Dense)             (None, 11)                5643      
                                                                 
=================================================================
Total params: 324,631
Trainable params: 324,625
Non-trainable params: 6
_________________________________________________________________
783
(783, 32, 20, 3)
(783, 11)
(626, 32, 20, 3)
(157, 32, 20, 3)
Epoch 1/50
  1/157 [..............................] - ETA
…
=====================>.] - ETA: 0s - loss: 0.0025 - accuracy: 0.9983157/157 [==============================] - 2s 10ms/step - loss: 0.0024 - accuracy: 0.9984 - val_loss: 2.1581e-04 - val_accuracy: 1.0000
dig-s0
File Exists
dig-s1
a_output_actual/dig-s1
File Exists
Model: "sequential_1"
_________________________________________________________________
 Layer (type)                Output Shape              Param #   
=================================================================
 batch_normalization_1 (Batc  (None, 32, 20, 3)        12        
 hNormalization)                                                 
                                                                 
 conv2d_3 (Conv2D)           (None, 32, 20, 32)        896       
                                                                 
 max_pooling2d_3 (MaxPooling  (None, 16, 10, 32)       0         
 2D)                                                             
                                                                 
 conv2d_4 (Conv2D)           (None, 16, 10, 64)        18496     
                                                                 
 max_pooling2d_4 (MaxPooling  (None, 8, 5, 64)         0         
 2D)                                                             
                                                                 
 conv2d_5 (Conv2D)           (None, 8, 5, 64)          36928     
                                                                 
 max_pooling2d_5 (MaxPooling  (None, 4, 2, 64)         0         
 2D)                                                             
                                                                 
 flatten_1 (Flatten)         (None, 512)               0         
                                                                 
 dense_2 (Dense)             (None, 256)               131328    
                                                                 
 dense_3 (Dense)             (None, 11)                2827      
                                                                 
=================================================================
Total params: 190,487
Trainable params: 190,481
Non-trainable params: 6
_________________________________________________________________
783
(783, 32, 20, 3)
(783, 11)
(626, 32, 20, 3)
(157, 32, 20, 3)
Epoch 1/50
  1/157 [..............................] - ETA
…
20220603	783	46	0.0029434910975396633	0.0817844495177269
20220603	783	47	0.002854776568710804	0.10411472618579865
20220603	783	48	0.0014102499699220061	0.0025288318283855915
20220603	783	49	0.022510934621095657	0.002444226061925292
20220603	783	50	0.00022778914717491716	0.006452462635934353
dig-s1
File Exists
dig-s2
a_output_actual/dig-s2
File Exists
Model: "sequential_2"
_________________________________________________________________
 Layer (type)                Output Shape              Param #   
=================================================================
 batch_normalization_2 (Batc  (None, 32, 20, 3)        12        
 hNormalization)                                                 
                                                                 
 conv2d_6 (Conv2D)           (None, 32, 20, 32)        896       
                                                                 
 max_pooling2d_6 (MaxPooling  (None, 16, 10, 32)       0         
 2D)                                                             
                                                                 
 conv2d_7 (Conv2D)           (None, 16, 10, 32)        9248      
                                                                 
 max_pooling2d_7 (MaxPooling  (None, 8, 5, 32)         0         
 2D)                                                             
                                                                 
 conv2d_8 (Conv2D)           (None, 8, 5, 32)          9248      
                                                                 
 max_pooling2d_8 (MaxPooling  (None, 4, 2, 32)         0         
 2D)                                                             
                                                                 
 flatten_2 (Flatten)         (None, 256)               0         
                                                                 
 dense_4 (Dense)             (None, 256)               65792     
                                                                 
 dense_5 (Dense)             (None, 11)                2827      
                                                                 
=================================================================
Total params: 88,023
Trainable params: 88,017
Non-trainable params: 6
_________________________________________________________________
783
(783, 32, 20, 3)
(783, 11)
(626, 32, 20, 3)
(157, 32, 20, 3)
Epoch 1/50
  1/157 [..............................] - ETA: 
…
20220603	783	48	0.00017777815810404718	0.17142422497272491
20220603	783	49	0.0029235652182251215	0.10625658184289932
20220603	783	50	0.004463122226297855	0.0659649595618248
dig-s2
File Exists
ziffer_resize/6_dig0001_20211122-202608.jpg 6 -1
ziffer_resize/7_dig0001_20211111-040759.jpg 7 -1
ziffer_resize/NaN_5_dig0001_20211111-124825.jpg -1 5
dig-s3
a_output_actual/dig-s3
File Exists
Model: "sequential_3"
_________________________________________________________________
 Layer (type)                Output Shape              Param #   
=================================================================
 batch_normalization_3 (Batc  (None, 32, 20, 3)        12        
 hNormalization)                                                 
                                                                 
 conv2d_9 (Conv2D)           (None, 32, 20, 32)        896       
                                                                 
 max_pooling2d_9 (MaxPooling  (None, 16, 10, 32)       0         
 2D)                                                             
                                                                 
 conv2d_10 (Conv2D)          (None, 16, 10, 32)        9248      
                                                                 
 max_pooling2d_10 (MaxPoolin  (None, 8, 5, 32)         0         
 g2D)                                                            
                                                                 
 conv2d_11 (Conv2D)          (None, 8, 5, 32)          9248      
                                                                 
 max_pooling2d_11 (MaxPoolin  (None, 4, 2, 32)         0         
 g2D)                                                            
                                                                 
 flatten_3 (Flatten)         (None, 256)               0         
                                                                 
 dense_6 (Dense)             (None, 128)               32896     
                                                                 
 dense_7 (Dense)             (None, 11)                1419      
                                                                 
=================================================================
Total params: 53,719
Trainable params: 53,713
Non-trainable params: 6
_________________________________________________________________
783
(783, 32, 20, 3)
(783, 11)
(626, 32, 20, 3)
(157, 32, 20, 3)
Epoch 1/50
  1/157 [..............................] - ETA: 
…
